…
ompile(optimizer='adam',loss='mean_absolute_error', metrics=['accuracy'])\r# model.summary()\rlr = 0.000007\repochs = 75\rmodel = super_res_model(X_resized.shape.as_list()[1:], Y.shape[1:])\rmodel.compile(optimizer=Adam(lr=lr),loss='mean_absolute_error', metrics=['accuracy'])\rmodel.summary()\rModel: \u0026quot;model\u0026quot;\r__________________________________________________________________________________________________\rLayer (type) Output Shape Param # Connected to ==================================================================================================\rinput_1 (InputLayer) [(None, 256, 256, 3) 0 __________________________________________________________________________________________________\rconv2d (Conv2D) (None, 256, 256, 64) 1792 input_1[0][0] __________________________________________________________________________________________________\ractivation (Activation) (None, 256, 256, 64) 0 conv2d[0][0] __________________________________________________________________________________________________\rconv2d_1 (Conv2D) (None, 256, 256, 64) 36928 activation[0][0] __________________________________________________________________________________________________\ractivation_1 (Activation) (None, 256, 256, 64) 0 conv2d_1[0][0] __________________________________________________________________________________________________\rconv2d_2 (Conv2D) (None, 256, 256, 64) 36928 activation_1[0][0] __________________________________________________________________________________________________\ractivation_2 (Activation) (None, 256, 256, 64) 0 conv2d_2[0][0] __________________________________________________________________________________________________\rconv2d_3 (Conv2D) (None, 256, 256, 64) 36928 activation_2[0][0] __________________________________________________________________________________________________\ractivation_3 (Activation) (None, 256, 256, 64) 0 conv2d_3[0][0] __________________________________________________________________________________________________\rconv2d_4 (Conv2D) (None, 256, 256, 64) 36928 activation_3[0][0] __________________________________________________________________________________________________\ractivation_4 (Activation) (None, 256, 256, 64) 0 conv2d_4[0][0] __________________________________________________________________________________________________\rconv2d_5 (Conv2D) (None, 256, 256, 64) 36928 activation_4[0][0] __________________________________________________________________________________________________\ractivation_5 (Activation) (None, 256, 256, 64) 0 conv2d_5[0][0] __________________________________________________________________________________________________\rconv2d_6 (Conv2D) (None, 256, 256, 64) 36928 activation_5[0][0] __________________________________________________________________________________________________\ractivation_6 (Activation) (None, 256, 256, 64) 0 conv2d_6[0][0] __________________________________________________________________________________________________\rconv2d_7 (Conv2D) (None, 256, 256, 64) 36928 activation_6[0][0] __________________________________________________________________________________________________\ractivation_7 (Activation) (None, 256, 256, 64) 0 conv2d_7[0][0] __________________________________________________________________________________________________\rconv2d_8 (Conv2D) (None, 256, 256, 64) 36928 activation_7[0][0] __________________________________________________________________________________________________\ractivation_8 (Activation) (None, 256, 256, 64) 0 conv2d_8[0][0] __________________________________________________________________________________________________\rconv2d_9 (Conv2D) (None, 256, 256, 64) 36928 activation_8[0][0] __________________________________________________________________________________________________\ractivation_9 (Activation) (None, 256, 256, 64) 0 conv2d_9[0][0] __________________________________________________________________________________________________\rconv2d_10 (Conv2D) (None, 256, 256, 64) 36928 activation_9[0][0] __________________________________________________________________________________________________\ractivation_10 (Activation) (None, 256, 256, 64) 0 conv2d_10[0][0] __________________________________________________________________________________________________\rconv2d_11 (Conv2D) (None, 256, 256, 64) 36928 activation_10[0][0] __________________________________________________________________________________________________\ractivation_11 (Activation) (None, 256, 256, 64) 0 conv2d_11[0][0] __________________________________________________________________________________________________\rconv2d_12 (Conv2D) (None, 256, 256, 64) 36928 activation_11[0][0] __________________________________________________________________________________________________\ractivation_12 (Activation) (None, 256, 256, 64) 0 conv2d_12[0][0] __________________________________________________________________________________________________\rconv2d_13 (Conv2D) (None, 256, 256, 64) 36928 activation_12[0][0] __________________________________________________________________________________________________\ractivation_13 (Activation) (None, 256, 256, 64) 0 conv2d_13[0][0] __________________________________________________________________________________________________\rconv2d_14 (Conv2D) (None, 256, 256, 64) 36928 activation_13[0][0] __________________________________________________________________________________________________\ractivation_14 (Activation) (None, 256, 256, 64) 0 conv2d_14[0][0] __________________________________________________________________________________________________\rconv2d_15 (Conv2D) (None, 256, 256, 64) 36928 activation_14[0][0] __________________________________________________________________________________________________\ractivation_15 (Activation) (None, 256, 256, 64) 0 conv2d_15[0][0] __________________________________________________________________________________________________\rconv2d_16 (Conv2D) (None, 256, 256, 64) 36928 activation_15[0][0] __________________________________________________________________________________________________\ractivation_16 (Activation) (None, 256, 256, 64) 0 conv2d_16[0][0] __________________________________________________________________________________________________\rconv2d_17 (Conv2D) (None, 256, 256, 64) 36928 activation_16[0][0] __________________________________________________________________________________________________\ractivation_17 (Activation) (None, 256, 256, 64) 0 conv2d_17[0][0] __________________________________________________________________________________________________\rconv2d_18 (Conv2D) (None, 256, 256, 64) 36928 activation_17[0][0] __________________________________________________________________________________________________\ractivation_18 (Activation) (None, 256, 256, 64) 0 conv2d_18[0][0] __________________________________________________________________________________________________\rconv2d_19 (Conv2D) (None, 256, 256, 1) 577 activation_18[0][0] __________________________________________________________________________________________________\radd (Add) (None, 256, 256, 3) 0 conv2d_19[0][0] input_1[0][0] ==================================================================================================\rTotal params: 667,073\rTrainable params: 667,073\rNon-trainable params: 0\r__________________________________________________________________________________________________\rhistory = model.fit(X_resized.numpy(),Y,batch_size=1,epochs=60,validation_split=0.10)\rmodel_n
…
